model.npz (npz, 64670 bytes, 4 tensors)

arr_0 f8 [10, 784]
00000000: 74bb f7e2 a338 c1bf a85a 7ad9 474f c23f
00000010: cc13 6124 094d c0bf 5ee2 ca64 5971 ddbf
00000020: c4ac 6081 70b6 cc3f 8ce4 f23c 0994 cbbf
00000030: 08a9 6ab3 f7a6 bcbf e430 4a17 61ed d33f
00000040: 4075 3c9e ed94 c1bf 3045 a61c 80dc c9bf
00000050: 88fc eedc 9fe6 c03f 8aab a65a 0781 dfbf
00000060: 53b1 49da 6288 dd3f 0965 7dbd e4af dcbf
00000070: 30dc 055c ce5d dabf c0e2 df9d 0b75 d8bf
00000080: 68dc 22f5 4ce0 bf3f bc75 b525 e20a da3f
00000090: c4d7 3a98 7077 d03f 1a38 bd75 da4f dfbf
000000a0: f0e2 0c28 fa72 c23f 00a6 27a0 e24c c3bf
000000b0: 2e5e 3cce 1bbc d5bf b424 da80 e645 d73f
000000c0: 80fc b1c4 dcb2 db3f dc15 3847 adaa dc3f
000000d0: d04f f15d eca6 d7bf 801d c61a c21f c13f
000000e0: 5034 f2f9 5287 b0bf 62a6 45a1 d260 d63f
000000f0: 8a6d bbe0 060c d93f 704e 390d 1c2d dd3f
00000100: 45c1 3485 a673 db3f ac6c b720 4664 c6bf
00000110: f07e 3e98 d3f7 c6bf 8a25 0e60 5099 93bf
00000120: b00e a366 f73a b4bf 7a3d fadb 21ba debf
00000130: 8c9d c1b8 5c76 d73f 3d7f b19d be61 d13f
00000140: 709b 76be 124c c33f 98d1 ad5e 6d83 d33f
00000150: f629 b997 362b d0bf be28 0a62 0eef d43f
00000160: ff6c 3565 d2e3 c1bf 15bb e74e 1802 d0bf
00000170: 6ece dcb5 1455 dfbf 6adb 620f 7fbe aebf
00000180: 3ce6 943f bfa7 db3f 2e8d f751 08f5 d23f
00000190: d1f2 9809 abef b83f 14d7 cadb ff18 d7bf
000001a0: 1846 5522 800c c2bf c091 3762 f32c b13f
000001b0: bc92 4dd1 fef7 dbbf 8270 5899 85a4 d13f
000001c0: 26a6 d599 e8c6 debf 1e14 36c2 6f67 d9bf
000001d0: c7ef 7507 544b a8bf b037 d1b3 eda2 cdbf
000001e0: 657a ab71 bc6f db3f 0727 8e6e c76d d7bf
000001f0: 1566 ceb4 4e1b dcbf 575c 1e1b c72a cfbf
00000200: fbca aabc 4de3 d33f 0de4 1642 32d3 d4bf
00000210: 591b 5dec 241b d73f b503 4bef e28c db3f
00000220: b95c 8960 c717 973f 480f 080f 179b c83f
00000230: 55ed af49 3e24 d53f b08d d5ca 2463 dc3f
00000240: 5fce 18ef e922 c4bf 5e7d 9dbd 8671 d1bf
00000250: 6c2b 4f18 22d5 ad3f 0455 a86d 5bf6 ca3f
00000260: 0979 7c6b 255c bdbf 521a 11dc 0b0f cc3f
00000270: de1f 38d1 d9dc dbbf c86a f028 05f9 c23f
00000280: edee bc1b 0169 debf af5f aa92 c745 babf
00000290: 1831 0cf5 d343 b5bf b01f 8f89 456e a23f
000002a0: d285 0bad 9076 ddbf e812 c3bb e062 c7bf
000002b0: 1879 02df 1f7d ca3f 5039 2e3d f3e4 d43f
000002c0: 0a28 e7ea adcd c53f 831f 4557 11dd 9c3f
000002d0: 8fd0 a282 01dd dabf f7b7 1e67 6808 d7bf
000002e0: df13 dbbc df2b d13f 87f6 57b5 c832 db3f
000002f0: 32f0 3054 293e d6bf 564b 2851 9cbf d5bf
00000300: ef5b 399d 38b6 c9bf 1176 021a 0c48 d13f
00000310: bc4a b021 125a d33f 65c4 7cc7 d96f d4bf
00000320: be81 c6d0 5083 d33f 86dd 01d9 c568 863f
00000330: 75e4 5973 7ec0 cd3f ad44 122b ee15 babf
00000340: 7562 6b20 26ee d5bf f2ed 2fa6 b5b4 df3f
00000350: 0687 9e8e 05e2 9bbf 525a 05f0 a4eb dbbf
00000360: 28f9 2ec4 e074 ddbf 19be 37ca f235 d4bf
00000370: 2064 36d0 d4af b2bf 4000 26c6 c371 bfbf
00000380: 2834 bc56 8393 c4bf 6fad 7bf8 c654 c93f
00000390: dd80 6788 0dfa b83f a35f 19ba 4720 a33f
000003a0: 2647 a6c2 476a ccbf 4232 2f72 2343 b0bf
000003b0: 1f8d b0fd 7e25 e03f bcde ce29 40d7 a5bf
000003c0: 6de4 892d b490 dd3f d46a 6a67 661c d4bf
000003d0: 30df e99b 320b d7bf 82ec 05d3 bbf2 c13f
000003e0: 9ca6 5b39 0c38 c83f b736 6530 2b15 d53f
000003f0: 8d3a 86f4 5d96 b43f 4dd1 98d9 7714 db3f
00000400: 3e5c 0143 132e d93f d623 64a8 be77 b63f
00000410: d491 a7b6 e5a7 d4bf 3636 de23 982b e13f
00000420: 55df 5285 de5b a6bf c9c3 d785 27f0 dd3f
00000430: dbbe 458e a630 d6bf 8b1f 80ad dc77 da3f
00000440: 4285 06a9 b843 92bf 91bd ec42 58a0 dabf
00000450: 3c6f 4387 dd8e de3f d8e2 72f1 693d da3f
00000460: 9423 32f9 59b4 d1bf 9ed1 d2c0 7e6b dcbf
00000470: 4142 c6cd 7150 b23f 400c 08a1 27b3 bc3f
00000480: 8fd2 0823 2b74 c23f c5f2 de55 1dda e03f
00000490: c23e f762 7869 de3f 6160 3efb 3f72 af3f
000004a0: bb7c 0468 b5d7 c03f 3025 0634 fce3 c6bf
000004b0: 6cd1 3fac 17bd bdbf 1bcf b9ee 7a18 dc3f
000004c0: b0ad 7f73 457d cfbf 09dc 8c8c 7a17 d63f
000004d0: f02f 3770 5e38 d73f 391a cd35 4c80 d73f
000004e0: 8276 03ef 56ea c43f bfcd 3ca0 31ba c23f
000004f0: 8a96 f0f6 490b d3bf bd39 81d6 184d d03f
00000500: 844a 94c1 ce89 d23f f975 e074 b104 bf3f
00000510: 8448 c0a4 fc4d d5bf 1274 73ac b70c e03f
00000520: 5fd7 7e77 25c7 a93f f375 ccff ad83 d1bf
00000530: f34a 898d 76b0 d2bf 6532 eb78 ae37 b63f
00000540: ce16 6aae 1bb1 d4bf ad8b 90aa 0cba c53f
00000550: 3d3e 7d21 5bcf d4bf efaa fc25 0b06 abbf
00000560: e2d8 0aa8 e5e1 b13f 78c6 1366 2b79 d1bf
00000570: 2a9c de5b c918 c1bf ee90 d1c6 c279 c93f
00000580: ec7a a7e8 4970 afbf f4f1 37d0 452a d53f
00000590: f3bb 8ac6 c511 d73f 9c7c defd 7aaf c43f
000005a0: 77b8 6fe9 6724 dd3f c1db 9734 a108 cbbf
000005b0: 0c9d 2240 d763 e03f d5da c8d9 08ab d5bf
000005c0: 442b f3b1 245f cd3f e6d1 9b23 96a4 d03f
000005d0: 7ba3 ed56 8e0d 85bf f58b 7df9 f7d5 a9bf
000005e0: bae8 3f42 315d 9dbf 0dc1 cccc c076 dd3f
000005f0: 8406 6b26 36c7 d4bf ef09 101f 1739 c9bf
00000600: 37d3 1ce3 0db8 df3f 2aec c6e2 1202 e03f
00000610: de31 e8fe cd77 cc3f bd99 d790 8628 bb3f
00000620: 4a85 6958 d819 d23f dbbb 634c fd64 c73f
00000630: 73ae e730 3e9d c73f c285 8ab9 68d9 d23f
00000640: affc 75f1 8f67 c5bf 7f9b bc9c b97e b0bf
00000650: bc7a cc05 c1dd c7bf b94f e717 11ba d73f
00000660: ce2d 8553 3181 c23f 83a1 d370 14ab b3bf
00000670: 6a23 9a4e c1a4 dc3f 06fd 19fa d573 a43f
00000680: 2126 5c5f 6f9d c9bf 9565 d254 87d7 d73f
00000690: d09f 61d6 1780 d6bf 0ca5 2652 3de0 cd3f
000006a0: d4f0 84b7 74f4 aabf fd59 dd54 cb67 dcbf
000006b0: 12c7 bacf a4f5 6ebf a1a9 8d1b 6952 d53f
000006c0: eef3 325d 3d93 db3f e37d be66 a70a d8bf
000006d0: 2059 4606 8ad9 dc3f e704 88cc c312 ccbf
000006e0: 8fe7 eced 9f70 d1bf 0c06 2a33 ab63 bdbf
000006f0: 3f3a 1b4b 3964 d0bf aed4 8c20 bb04 c3bf
00000700: 9311 b696 d222 d1bf 7dba 334c 5b67 dfbf
00000710: f315 cd37 c9f8 dd3f 3dc4 58d8 e070 d23f
00000720: 8982 ff0c 894b e03f 90d1 6787 47eb d73f
00000730: 3986 cc78 c713 e23f c28c bd0e 948b d03f
00000740: 9939 d760 f004 cdbf 457c 8484 6a87 de3f
00000750: 9544 36e3 e9f0 9dbf 35d9 8941 b28d c03f
00000760: 6d78 2c48 d117 ce3f ce9f d35c e79c c03f
00000770: 5657 18d4 b157 aabf 5fa2 729e cacc ba3f
00000780: 95ee d0d8 3e48 d1bf 1a3c 71ca f1ff c4bf
00000790: 280e 592e 3877 da3f 2e5f c5aa 192f cd3f
000007a0: a235 6c11 2983 c1bf 3175 16de 791e cfbf
000007b0: 5169 f1c2 7444 de3f 331d 9b3e 899e d43f
000007c0: 76c6 6aab def0 dd3f cb54 fea4 fa8c df3f
000007d0: f896 9d7f 2d8e d33f 570a 0193 23d5 c43f
000007e0: 68a8 9a23 2c82 d93f c9cc 8b0d 8da7 d1bf
000007f0: 4276 f9f4 5a10 d5bf 6b0a d893 d401 d73f
-0.13454102117927003 0.1430444538024933 -0.12735094333961994 -0.4600432857801361 0.2243176109053363 -0.21545520282760255 -0.1119227231053267 0.3113634803237473
-0.1373574278485794 -0.2020416393175224 0.1320381001259856 -0.4922502885116776 0.4614493495671656 -0.4482356882559349 -0.41197546946154073 -0.3821438829177559
0.12451630577821649 0.4069142692804595 0.2572900282497097 -0.4892488622471106 0.14413382487852955 -0.15078385181486453 -0.3396062387487032 0.3636413820573339
0.43279189308663746 0.4479172893046248 -0.3695631902130545 0.13378168399161083 -0.06456488229942292 0.3496595930979308 0.39135906168459 0.45587827006713777
0.4289337445107047 -0.17493511769757697 -0.17943806585116517 -0.019139533865688153 -0.07902475600990999 -0.48011061174562253 0.36659925501449986 0.2715908565496539
0.1507590703961017 0.3048966812705429 -0.25263752762535263 0.3270908315104285 -0.13976507131415158 -0.25012786584459096 -0.4895679260255069 -0.06004712164706556
0.4321134682573733 0.2962055969675984 0.09740704521477574 -0.3609008451852429 -0.1410064857141584 0.06709214351537351 -0.4370114368414695 0.2756666181101154
-0.4808904173174561 -0.3969382664293465 -0.04744970885346294 -0.23153468399180843 0.42869483089990573 -0.366075380291122 -0.43916671425685766 -0.24349297355795116
0.31074851440932577 -0.32539040044827133 0.36103175241844593 0.4304740273328734 0.022551646487354946 0.19223297342261447 0.3303371162034712 0.4435512524416607
-0.1573154847588851 -0.27255409733876046 0.05826670214408733 0.21064322332737373 -0.1146872889916929 0.2192091774506531 -0.4353546660572628 0.14822449206334043
-0.47515895565787397 -0.10262725191785081 -0.08306622250183116 0.0359975557726665 -0.4603616418736155 -0.18270501297060737 0.20694349660056655 0.3264740083185602
0.17033933610792956 0.02818705649522669 -0.41973912961408016 -0.3598881728202054 0.2683028549475334 0.42497461041771384 -0.3475440332583758 -0.33981998372580813
-0.20087344815212257 0.27002241649628994 0.3023724869719151 -0.3193268249625077 0.3048898733923372 0.010942025837933366 0.23243694908504478 -0.10189713050410161
-0.34266045728649114 0.4954046366617312 -0.027229391889370035 -0.436257585902614 -0.4602586665968311 -0.31579274890734294 -0.07299547274887219 -0.12282966220482283
-0.16075174079051746 0.19789969571079832 0.09756550388511039 0.037355653254677955 -0.22199341778155562 -0.06352445161537282 0.5045771555782358 -0.04265785703995337
0.46195702025540336 -0.3142333993834374 -0.3600584528535249 0.14022014430870305 0.18921044159587985 0.32941703535184835 0.08041941852409647 0.4231242775888589
0.39343720954406425 0.08776465998756974 -0.32274763905868764 0.5365715694949305 -0.04366965653883762 0.4677828604754351 -0.3467193974856692 0.4135657972660673
-0.017836461369033836 -0.41603666816350776 0.47746980866735433 0.4099984033487494 -0.27663277946026565 -0.4440609820406055 0.0715399863604569 0.11210868531638685
0.14417018137614376 0.5266253163495881 0.4751873938048271 0.06141853277148424 0.1315829046152198 -0.1788325552009069 -0.11616657214455522 0.4389941531473924
-0.24601047648989782 0.34518302655800476 0.36281548460533397 0.3672056699182665 0.16340147657949805 0.14630718540284524 -0.29756402125563197 0.2547056288502992
0.2896611109182816 0.12116536239087584 -0.33288494194960827 0.5015524261649509 0.050347491108751134 -0.27366209011401493 -0.2920204527082852 0.08678713276021595
-0.32330982239396355 0.16974027946807038 -0.325156004623725 -0.052780483615000644 0.06985316612812967 -0.273020600971996 -0.1335689257223021 0.1990283461374313
-0.061403569841550126 0.3307051213630807 0.3604597510229148 0.16160523792220693 0.4553470401432444 -0.21120085781123346 0.5121876003876493 -0.33856412189508706
0.22946604432066853 0.2600455615750249 -0.010279762294617125 -0.05046057625329318 -0.028675813358838488 0.4603731155393838 -0.32465890647663564 -0.197054758231459
0.4956087797066177 0.5002531460990032 0.22240614840155976 0.10608712230860014 0.28282745965960443 0.18276945333442893 0.18448617351474503 0.29451959723709475
-0.1672229699142682 -0.0644336707742763 -0.18645489485876066 0.37073161444027 0.1445676477254509 -0.07682922129209228 0.4475558536146794 0.03994625738141093
-0.20011703640220538 0.3725298240984441 -0.3515681832855053 0.23340574752118248 -0.052646300699480314 -0.443835099101676 -0.003779241463996005 0.33315494242438076
0.43086179830044 -0.3756502631531175 0.4507775365140265 -0.2193226574600324 -0.272499067639381 -0.11480207442402718 -0.25611717543225504 -0.1485818776069769
-0.2677504035748594 -0.490683388153151 0.4683096928532386 0.2881395447503257 0.5092206243389948 0.37373531554410366 0.5649144515375105 0.25851918639655136
-0.22671322563696775 0.4770151418796938 -0.029239325039786285 0.1293242282878936 0.235101852646895 0.1297883227591669 -0.051450307026398676 0.10468736999849558
-0.27003451512767046 -0.16406080613020962 0.4135265781989994 0.22799988592554982 -0.1368151984283204 -0.2431175550854419 0.4729282287350048 0.3221762763391382
0.46782652606916686 0.4929796801819292 0.3055528398748346 0.16275448491986097 0.3985700938889125 -0.275851500729186 -0.3291232483223646 0.35948671758538947

arr_1 f8 [10, 1]
00000000: de8f 661a c4d7 f13f b0f2 eb27 67df dd3f
00000010: 1be3 6715 d8ab e73f 06ee 7802 8b21 d13f
00000020: c8ba 9250 1a76 d23f 443b 894c db96 e73f
00000030: a352 3ad4 4d2d e53f 8ddb 1e40 1b80 ea3f
00000040: 1766 5b14 c2d8 e63f 81b3 d88a 87d1 de3f
1.1151772528910366 0.4667604341373517 0.7397270601350984 0.26767230264133024 0.28845842236016184 0.7371651167721684 0.6617802758288075 0.8281379940370798
0.7139597318266081 0.48153866347529833

arr_2 f8 [10, 10]
00000000: 5e59 dda0 5431 e4bf 288c 8d10 9558 e0bf
00000010: 816e a84f 3d59 dcbf 1551 7d25 2cab e33f
00000020: 5c0d 6c77 3407 6fbf 9da2 74a3 8c72 cf3f
00000030: 912c 7e65 7543 ddbf f10b 4aa7 1be0 da3f
00000040: 659f 432a c9e5 d73f 1709 c1ac ea9b 81bf
00000050: 51d5 a8c3 4fab ee3f a320 44b3 f3a9 ca3f
00000060: 1832 6f11 d3ee 82bf 224f 4c0a 3c5c e2bf
00000070: 785e e0f7 aa16 d43f 210c 3142 57cb c23f
00000080: d3c3 54ea e089 e6bf 06c1 dfe6 cfd2 a9bf
00000090: 091a bf98 9242 ebbf 77af 4b5a 8733 adbf
000000a0: 6861 733c 4943 a53f 886d 9e7d 2e50 b2bf
000000b0: 98b1 7ad0 e533 a8bf a51d 71e1 c45b c7bf
000000c0: 5ed3 23db f9dc e0bf c6f1 1bd2 ae78 c4bf
000000d0: 73e4 2fe3 16d2 d6bf a705 52ab cbdc e03f
000000e0: 71dd f343 151f b53f b711 e04e 04fb e43f
000000f0: 6618 3055 f06a de3f f09a 705a ac23 b8bf
00000100: 2680 ba0d a3ae 923f 3ee6 db4e ee14 d6bf
00000110: 982d 3b78 4a7d d3bf 9055 2804 eddb 973f
00000120: 62fc e3f5 669d c7bf 8f33 4f00 5538 b6bf
00000130: 16af 5a7f eb58 d93f 220e e46e 38f8 c9bf
00000140: b6bc f1f8 471e d9bf 59c6 5e03 9193 c93f
00000150: 8edb 1609 efa7 d2bf e2d1 7e5d bb00 c03f
00000160: 4034 f79c 1651 9d3f 9974 576b 5a0b 713f
00000170: a098 d75d 3223 e83f cb51 5dc2 4d2a e2bf
00000180: f69e 8abd fe45 e5bf e426 0841 13b7 b2bf
00000190: 3dd4 865f 88f3 cd3f 731d 763f bec5 d1bf
000001a0: 615e b9d8 0137 d23f 6aa7 91b5 7365 e23f
000001b0: f94a b000 c194 d03f 2222 74ba 4a34 d93f
000001c0: 57e0 5b06 0401 c6bf b42e 2433 a3c0 b03f
000001d0: 6237 7a8d c195 babf 27d2 e8da 7378 ddbf
000001e0: 3cfa 0486 9c45 c4bf 6662 e50f 6569 c4bf
000001f0: 5d53 33fc d7b8 813f a621 4d74 de04 b83f
00000200: 92b0 ec46 e06f b43f e676 a0ef b448 d0bf
00000210: f046 58c0 2a81 b63f 9f14 bde4 6077 e83f
00000220: fd2c b760 5c3d e9bf a8ee 3165 ba9d b4bf
00000230: 8b66 3e93 cc94 b5bf 3d5a 489e 6fde f13f
00000240: d979 47cc b6c2 bbbf fdbb ae9d f24f e03f
00000250: a288 978e ecd1 d23f 0e67 c552 8a27 e0bf
00000260: 8b8e 3c62 fc39 dfbf fbaa 48de 300e d1bf
00000270: b909 5228 53ce d13f d762 e202 87aa c93f
00000280: 3532 304e 936b c63f b93d a44f db19 dfbf
00000290: 6bdf 87fe b7eb d4bf 7a3c 76e3 4590 d33f
000002a0: c917 e260 6d42 cc3f 11cd 5946 5060 d73f
000002b0: 5ae8 6fde 0895 943f 634d 58df 4045 cdbf
000002c0: 5c57 3971 b8d3 cabf f56e 4977 f1b2 d53f
000002d0: 87b0 25c7 f8a4 d8bf 1b4f 1ada e81b db3f
000002e0: f41a e20f 2003 b43f 1a32 3b59 2eeb d0bf
000002f0: 1a5b cbb2 4b81 d93f 7d90 fe60 e695 47bf
00000300: 26a8 4bc9 48bd c93f dccb 7836 1dc2 e4bf
00000310: 0486 fd9d 0aff c73f bc7f 43c2 896d c33f
-0.6310217992675395 -0.5108132670687882 -0.4429467466268094 0.6146450741021307 -0.0037876152740651658 0.24568326932173515 -0.4572423449651036 0.41992846810188583
0.37340001227720726 -0.008598168751750053 0.9584120580172258 0.20831152203777945 -0.009244584054521929 -0.5737590981611655 0.31388353544887293 0.14683047039042754
-0.7043308808116485 -0.05043649380957231 -0.8518765433626082 -0.05703375794641279 0.041528977040516335 -0.07153597418657942 -0.04727094812310212 -0.18248806960967304
-0.5269746093823462 -0.1599329496310828 -0.35657283960569613 0.5269525858022249 0.08250553997992484 0.6556417027027724 0.4752770263588729 -0.09429433067326065
0.01824431201259826 -0.3450275201899763 -0.30452214948010115 0.023299888018376402 -0.18449103361487845 -0.08679705865433916 0.39605224072396206 -0.20288758673278645
-0.39247321425404935 0.19981587090073807 -0.29149986159921404 0.1250223356743297 0.028629639940664697 0.004161217880633527 0.7542964775900778 -0.5676640316183293
-0.6647943212492169 -0.0731060060280942 0.23399452843082882 -0.2776942844143015 0.2846073738523725 0.5748842760342374 0.2590792185521163 0.393816644748343
-0.171905997376373 0.06543941496436895 -0.10384759620703002 -0.4604768407619155 -0.1583743719474614 -0.15946639324353667 0.008653342613266163 0.09382429446589544
0.0798320935397803 -0.25443766976409987 0.0879084319679142 0.7645725696135236 -0.7887403382277679 -0.08053173990804885 -0.08430174441164177 1.1168056662478556
-0.10843985068593244 0.5097592429864332 0.29406274724000003 -0.5048266998885269 -0.4879141768781003 -0.2664911432972727 0.27821806848092084 0.20051658287845583
0.1751579410341876 -0.4859531667470623 -0.32688712936896164 0.30568072522232337 0.22077719908355523 0.36525351400560263 0.020099772049413246 -0.22867594628824425
-0.20958619621768093 0.3390468277845991 -0.38506907890292336 0.42357846545313443 0.07817268741392153 -0.26435431207645055 0.3985165830649052 -0.0007197737595459188
0.20108899907001038 -0.6486955703643349 0.18747074808474917 0.1517803381493631

arr_3 f8 [10, 1]
00000000: c458 03e2 f87d cb3f 423a 7056 37ca d53f
00000010: f09f 416d 7a9c d23f 24f0 31e7 fac1 de3f
00000020: 463b e924 4a95 dabf dc41 7b81 0a22 cf3f
00000030: dac8 5e8a 2ba3 d53f 8485 0426 5681 dcbf
00000040: 48b8 8cc8 0bc0 cdbf 204e bb15 6ea1 b13f
0.2147818664149722 0.3404672950863735 0.2908006731945525 0.4805896051182137 -0.4153619156322076 0.24322635004365523 0.33808411133499094 -0.44539407456075986
-0.23242327969041043 0.06886947660978437
